Emotion_Classification/model_cnn_emotionclassifier.pt (torch, 736473 bytes, 26 tensors)

network_layers.0.weight f4 [512, 8]
0	0xbe97f0dc	-0.2967595
1	0xbd5f86da	-0.054571964
2	0xbdf9611c	-0.12176725
3	0xbe3b4f47	-0.1829196
4	0xbe5c41fc	-0.21509546
5	0xbe3d10d9	-0.18463458
6	0x3e0be465	0.13661344
7	0x3c96bac4	0.018399604
8	0x3d1a2e32	0.03764171
9	0x3b8a8943	0.0042277887
10	0x3e820ede	0.25401968
11	0x3c989bd6	0.018628996
12	0xbd9fcf17	-0.07803171
13	0xbc8a561a	-0.01688676
14	0x3f23e44d	0.64020234
15	0xbe17f5e5	-0.14839895
16	0x3dbbdba3	0.09172752
17	0xbb3720be	-0.00279431
18	0x3bb6ac00	0.005574703
19	0x3c15d146	0.009144133
20	0xbdb93b80	-0.09044552
21	0xbe937f35	-0.2880799
22	0xbea53365	-0.32265773
23	0x3f3518fa	0.70741236
24	0xbdbd2e93	-0.09237399
25	0x3d7b4f83	0.061355125
26	0xbe53b470	-0.206743
27	0x3f284baf	0.65740484
28	0xbeb68d6d	-0.35654774
29	0xbcdc7b85	-0.026914367
30	0x3d4acffa	0.04951475
31	0x3e2c0f21	0.16802646
32	0x3d7b0cea	0.061291613
33	0xbe8c113b	-0.27356896
34	0xbd25df3d	-0.0404961
35	0xbe550e51	-0.20806243
36	0x3ed587ff	0.4170532
37	0x3e814ce5	0.25253978
38	0x3e3e205b	0.1856703
39	0xbd1268bf	-0.035744425
40	0xbf2c1613	-0.6722118
41	0xba1573f6	-0.00057011785
42	0x3da5de29	0.08099014
43	0x3c4dd5ca	0.012563178
44	0x3c82ac22	0.01595122
45	0xbbce6b8c	-0.0062994417
46	0x3e7877f0	0.24264503
47	0xbd6fa3d0	-0.058505833
48	0x3d7ef1e4	0.062242404
49	0xbdcb962e	-0.09940754
50	0x3d6bc4fd	0.05756091
51	0xbe6a820e	-0.22901174
52	0xbf553b16	-0.83293283
53	0xbdaaa09c	-0.08331415
54	0xbca6a21a	-0.020340968
55	0xbe6954ba	-0.22786227
56	0x3e819793	0.25310954
57	0xbcf5f8ea	-0.030025918
58	0x3ccaac12	0.024740253
59	0xbbbf3278	-0.0058348738
60	0x3b2d7f5a	0.0026473613
61	0xbd9ea5ef	-0.07746493
62	0x3e685d6f	0.22691892
63	0x3f6a6d8b	0.915734
64	0x3dd30fa7	0.1030572
65	0xbf32b224	-0.6980307
66	0x3e35f351	0.17768599
67	0x3dadd125	0.08487157
68	0xbe0caa8c	-0.13736933
69	0x3d6a9382	0.05726958
70	0xbe654402	-0.22389224
71	0x3c8b2714	0.016986407
72	0xbf0a2d9f	-0.5397586
73	0x3b644b51	0.003483493
74	0x3d86a9d1	0.06575359
75	0xba7292af	-0.0009253425
76	0xbd2ae4b9	-0.041722033
77	0x3d866549	0.06562287
78	0xbdbcf710	-0.09226811
79	0xbf30854a	-0.6895338
80	0xbe3ee742	-0.18642905
81	0x3cd2d914	0.025738277
82	0xbea4a41b	-0.32156453
83	0x3e66abe6	0.22526512
84	0x3ed4e81d	0.41583338
85	0x3e732731	0.23745419
86	0xbece728d	-0.4032177
87	0x3d7aa72e	0.06119459
88	0xbeb70096	-0.35742635
89	0xbcf0960b	-0.029368421
90	0xbe8bb3c0	-0.27285576
91	0x3cd466e5	0.02592797
92	0x3cbf1aba	0.023328174
93	0x3e83eb30	0.2576537
94	0x3efd5172	0.494762
95	0xbc5fd338	-0.013661198
96	0x3cea0c24	0.028570242
97	0xbe47695e	-0.19473788
98	0xbe270348	-0.16309845
99	0xbdc7d0f5	-0.09756652
100	0x3db3173b	0.08744665
101	0xbf05d25b	-0.522741
102	0xbdf90406	-0.121589705
103	0xbb91f01a	-0.004453671
104	0x3f46082e	0.7735623
105	0xbd1009a9	-0.035165463
106	0xbe1cbc5c	-0.15306228
107	0xbda752bc	-0.08170077
108	0x3ccfe699	0.025378512
109	0x3d8600a3	0.0654309
110	0xbd02b8ad	-0.0319144
111	0x3b5d5cd8	0.0033777263
112	0x3da70962	0.081560865
113	0xbed1ef2e	-0.41002792
114	0xbf0d398e	-0.55165946
115	0x3e1cf08e	0.1532614
116	0xbdab17ec	-0.08354172
117	0xbdae37be	-0.08506726
118	0x3d89cdfd	0.06728742
119	0xbd96dafe	-0.07365988
120	0xbcd69d4f	-0.026198057
121	0x3ce3dca1	0.027815165
122	0x3e22f921	0.15915348
123	0xbf422886	-0.75843084
124	0x3e52f880	0.20602608
125	0x3d4a9077	0.04945418
126	0x3c60ea66	0.01372776
127	0xbb5d720d	-0.0033789903
128	0x3f533f52	0.82518494
129	0xbc97b661	-0.018519582
130	0xbd1def1f	-0.03855812
131	0xbd113b49	-0.03545693
132	0x3cf83123	0.030296868
133	0x3c6f4df7	0.014605991
134	0x3d52a2d2	0.05142481
135	0xbd40edb6	-0.0471017
136	0xbef24c56	-0.47323865
137	0x3a5f2ac6	0.00085131486
138	0x3d2499d1	0.040185753
139	0x3cdddd52	0.027083073
140	0x3ef0067e	0.46879953
141	0xbe09b40c	-0.13447589
142	0x3e7b92d4	0.24567729
143	0xbb98cf2d	-0.004663369
144	0xbd8dcdcc	-0.06924018
145	0x3d731fff	0.059356686
146	0x3cc5aeb4	0.024131157
147	0xbf192fe7	-0.5983872
148	0x3e903edd	0.2817296
149	0xbe35d3bb	-0.1775655
150	0x3e4d5cdc	0.20054954
151	0x3d0fac95	0.035076696
152	0xbde60a4a	-0.11232431
153	0x3e9d2ae3	0.30696782
154	0xbe426437	-0.18983541
155	0xbd0ed6f9	-0.034872983
156	0x3d947542	0.07248928
157	0xbe7a878e	-0.24465773
158	0xbf033d6f	-0.51265615
159	0x3eaf85ac	0.3428167
160	0xbee420b5	-0.44556203
161	0x3d196063	0.037445437
162	0xbe04f66e	-0.1298463
163	0xbe241ae8	-0.16025889
164	0xbf104f1f	-0.5637073
165	0xbe08c61f	-0.13356827
166	0xbdf11d2d	-0.11773143
167	0x3e67329e	0.22577903
168	0x3d4eda6d	0.050501276
169	0xbee1114c	-0.4395851
170	0x3e10bf67	0.14135514
171	0xbccca400	-0.024980545
172	0xbda013fe	-0.07816313
173	0x3f2acfb6	0.6672319
174	0xbd749807	-0.059715297
175	0xba639448	-0.00086814584
176	0x3d344038	0.044006556
177	0xbbf4e0bb	-0.007473079
178	0xbed4af69	-0.41540077
179	0x3c179c12	0.009253519
180	0x3eba11b9	0.36341646
181	0x3ce559b1	0.02799687
182	0x3db528d2	0.088456765
183	0x3eda4f16	0.42638463
184	0x3f172ee3	0.5905592
185	0xbd8f43f6	-0.069953844
186	0xbe73b4c8	-0.23799431
187	0xbb81ca5c	-0.0039608907
188	0xbe63f20b	-0.22260301
189	0x3d3d081f	0.046150323
190	0x3ec30dca	0.38096458
191	0xbdde9648	-0.108685076
192	0xbe2491d6	-0.16071257
193	0xbc6cba24	-0.014448676
194	0xbe8b5298	-0.27211452
195	0x3e339c3f	0.17540072
196	0x3a217f08	0.0006160592
197	0xbdc5ea46	-0.09663825
198	0x3e224cbf	0.15849589
199	0xbf0ac96a	-0.54213583
200	0xbd8c1f54	-0.06841913
201	0x3cb7bb20	0.022428095
202	0xbde088ad	-0.10963569
203	0xbd8c030f	-0.06836521
204	0x3eb26c6a	0.34848338
205	0xbeabbee0	-0.33544064
206	0x3d409b0b	0.04702286
207	0xbcde78fd	-0.027157301
208	0xbd4e564e	-0.050375275
209	0x3f0f6b22	0.56022847
210	0xbeb40af0	-0.35164595
211	0xbe41a6a7	-0.18911229
212	0x3e9f23dc	0.31082046
213	0xbe0e6d39	-0.13908853
214	0x3d47acd8	0.04874882
215	0xbc096478	-0.00838577
216	0xbee452e4	-0.4459449
217	0xbeae66f7	-0.3406293
218	0xbe99cfb6	-0.30041283
219	0x3e21eaba	0.15812197
220	0xbe8fc487	-0.28079626
221	0x3d524886	0.051338695
222	0x3eac324d	0.33632126
223	0xbd4666aa	-0.04843775
224	0xbcf24b94	-0.029577054
225	0xbdaf277d	-0.08552454
226	0xbeaa2e9a	-0.3323868
227	0xbf3cfec3	-0.73826236
228	0xbedda81b	-0.43292317
229	0xbdd1809d	-0.10229609
230	0xbda8207f	-0.08209323
231	0x3d8df65b	0.06931754
232	0xbc4ff92f	-0.012693687
233	0xbd64fbd3	-0.05590422
234	0xbd10f7fe	-0.035392754
235	0xbd3f3600	-0.046682358
236	0x3f1bfe6a	0.6093508
237	0xbef2c47c	-0.4741553
238	0xbcb1043f	-0.02160847
239	0x3d97742a	0.073952034
240	0x3d1ab3db	0.03776918
241	0x3d15783c	0.036491618
242	0x3d02e768	0.031958967
243	0x3d1d575c	0.03841339
244	0xbf12f608	-0.57406664
245	0x3eebd319	0.46059492
246	0xbda5d715	-0.08097664
247	0xbc36490e	-0.011125816
248	0x3d67d629	0.056600723
249	0x3ce51eea	0.027968843
250	0xbcf14798	-0.029453084
251	0xbda7f3ba	-0.08200784
252	0x3f331f24	0.6996939
253	0xbda39282	-0.079869285
254	0x3cb710a4	0.022346802
255	0xbaa9c8dd	-0.0012953539

network_layers.0.bias f4 [512]
0	0xbf29b625	-0.66293555
1	0xbe23e391	-0.16004778
2	0xbd81223c	-0.06305358
3	0x3e946d92	0.28989846
4	0x3eb19c59	0.34689596
5	0xbdd597b7	-0.10429328
6	0xbd6620e6	-0.05618372
7	0xbdd7a178	-0.105288446
8	0xbe7fbeff	-0.24975203
9	0xbd7a1824	-0.06105818
10	0x3ebc2caa	0.36752826
11	0x3eadec1c	0.339692
12	0xbf1ef5ac	-0.62093616
13	0xbe6692bc	-0.22516912
14	0x3e3dcd3c	0.18535322
15	0xbd604b12	-0.054759093
16	0xbe11b8c8	-0.14230645
17	0x3e9e5fbf	0.30932423
18	0x3e85e9d0	0.26154947
19	0xbdb4593c	-0.088060826
20	0x3eeebf1a	0.46630174
21	0xbee3b63e	-0.44474977
22	0x3e83f59b	0.2577332
23	0xbde31f68	-0.11089975
24	0x3e5f9ca6	0.218371
25	0xbf441f7d	-0.7661055
26	0x3ec5fd0d	0.38669625
27	0xbdb260cc	-0.08709869
28	0xbcd0070e	-0.025393989
29	0xbe3a97bc	-0.18221945
30	0xbdb3cb08	-0.087789595
31	0xbe2edd5a	-0.17076626
32	0xbd9e09ee	-0.07716738
33	0xbdc545c6	-0.09632449
34	0xbdae559f	-0.08512425
35	0xbd5d7eb8	-0.054075927
36	0x3e47f787	0.19528018
37	0x3e539b48	0.20664704
38	0x3e3ce88d	0.18448086
39	0xbd940ae7	-0.07228642
40	0x3ecf63b8	0.40505767
41	0xbe845120	-0.25843143
42	0xbd03ba43	-0.032160055
43	0x3e9a9cf9	0.30197886
44	0xbe24b911	-0.16086222
45	0xbf0e8b13	-0.5568096
46	0xbda518a3	-0.0806134
47	0xbe198e01	-0.14995576
48	0xbebbb51e	-0.3666162
49	0x3ec41030	0.382936
50	0xbef0e852	-0.47052246
51	0xbdcb75c1	-0.09934569
52	0xbefea8b9	-0.497381
53	0xbe79d00c	-0.2439577
54	0xbdf6bb1a	-0.120474055
55	0x3eba6928	0.36408353
56	0x3e80a797	0.2512786
57	0x3eaed84a	0.3414939
58	0xbe0ef561	-0.13960792
59	0x3e9f1b5a	0.31075555
60	0xbeaa1e20	-0.3322611
61	0xbda01d9f	-0.0781815
62	0x3eacee29	0.33775452
63	0xbe918228	-0.28419614
64	0xbd64fbd3	-0.05590422
65	0x3e574797	0.21023403
66	0x3ee4465f	0.4458494
67	0x3eafeea7	0.34361765
68	0x3ea72a59	0.32649496
69	0xbe820376	-0.25393265
70	0xbde0ca24	-0.10976055
71	0xbe60b1bd	-0.21942802
72	0x3e48fd88	0.19627964
73	0xbe2cb900	-0.16867447
74	0xbf02fcab	-0.5116679
75	0x3ebf79a7	0.373975
76	0xbe1f237b	-0.15540878
77	0xbe26b6a9	-0.16280617
78	0x3ec33eb1	0.38133767
79	0xbd900069	-0.07031328
80	0x3e107052	0.14105347
81	0xbec68245	-0.38771263
82	0xbcc58b59	-0.024114298
83	0x3e8413bf	0.25796315
84	0x3e9256b9	0.2858179
85	0xbdfb2ff3	-0.12265005
86	0x3e946960	0.28986645
87	0xbea70ef8	-0.32628608
88	0xbcef5607	-0.029215826
89	0x3e4139f1	0.18869759
90	0xbd8f926e	-0.07010351
91	0xbe3156ba	-0.1731824
92	0xbd925873	-0.071457766
93	0xbe76a5a5	-0.24086626
94	0x3e828225	0.25489917
95	0x3eb37344	0.35048878
96	0x3e92820b	0.2861484
97	0x3e8ce3d4	0.2751757
98	0x3eaf09ac	0.34187067
99	0xbd77ce3b	-0.06049941
100	0x3ec2be4e	0.38035816
101	0xbf190543	-0.59773654
102	0xbec01ccc	-0.3752197
103	0x3d2a0dfc	0.041517243
104	0xbf0ac25a	-0.54202807
105	0xbcee6a5b	-0.029103449
106	0xbf17b1dd	-0.5925577
107	0xbf2e40ca	-0.6806761
108	0xbd26f99a	-0.040765382
109	0x3ebe48ac	0.3716482
110	0xbdddce53	-0.10830369
111	0xbeec73d6	-0.46182126
112	0xbdb499ac	-0.08818373
113	0xbebda7fb	-0.3704222
114	0xbe2b6a32	-0.16739729
115	0xbf07247a	-0.52790034
116	0x3ed66e9a	0.41881257
117	0x3e9b6b05	0.30355087
118	0x3e87ac6e	0.2649874
119	0x3ec0492d	0.3755583
120	0x3e48a4a2	0.19594052
121	0x3e9ab0df	0.30213067
122	0xbd41f08f	-0.047348555
123	0xbefa9796	-0.48943776
124	0xbde1dd7a	-0.110285714
125	0x3e84895c	0.25886047
126	0x3ea865a9	0.3289006
127	0xbdfea80b	-0.124343954
128	0xbf0dfd90	-0.5546503
129	0xbddd9050	-0.10818541
130	0xbd4406df	-0.047858115
131	0xbeecb24c	-0.4622978
132	0xbdad1124	-0.08450535
133	0xbd8e2b6c	-0.06941876
134	0xbe001d76	-0.12511238
135	0xbf2581c5	-0.6465114
136	0x3e8acdfa	0.27110273
137	0x3e93a55d	0.288371
138	0x3eace320	0.33767033
139	0xbe4f2b3c	-0.20231336
140	0xbdc440a4	-0.09582642
141	0xbec6ee09	-0.3885348
142	0xbe423806	-0.18966684
143	0xbe252117	-0.16125904
144	0x3e87b8aa	0.26508075
145	0xbe724932	-0.23660734
146	0xbf160886	-0.58606756
147	0x3e55c45b	0.20875685
148	0x3e9ce5b5	0.30644003
149	0x3eac4edf	0.33653924
150	0x3ed22e83	0.4105111
151	0xbd8f9b9c	-0.07012102
152	0xbd280dee	-0.04102891
153	0xbd8123fc	-0.063056916
154	0xbecc6fa9	-0.3992894
155	0xbd8adfb0	-0.06780946
156	0xbdd9aa31	-0.106281646
157	0x3e403b0b	0.18772523
158	0xbf0ab5ab	-0.54183453
159	0xbd934f2c	-0.07192835
160	0xbeedb5ed	-0.4642786
161	0x3edb2505	0.4280168
162	0x3ebe4e72	0.37169224
163	0xbe1e95e8	-0.15486872
164	0xbf05cb28	-0.52263117
165	0xbd23fc82	-0.040035732
166	0xbd67558d	-0.056478072
167	0xbd6e3faa	-0.058166184
168	0x3e87e0a7	0.26538584
169	0x3e4792d3	0.19489603
170	0xbe991a85	-0.29903045
171	0xbdc4524a	-0.09586008
172	0xbdadb6ad	-0.08482108
173	0x3e9f335e	0.31093878
174	0x3e6cbd3f	0.23119067
175	0x3ecc2379	0.39870813
176	0x3e69deb1	0.22838856
177	0xbf21f46b	-0.6326358
178	0xbc599c6a	-0.013281921
179	0xbe069870	-0.13144088
180	0x3e867e4f	0.2626824
181	0xbe0f2985	-0.13980682
182	0xbdb85417	-0.09000414
183	0xbdd05833	-0.10173073
184	0xbe8454a6	-0.25845832
185	0xbe1c9254	-0.15290195
186	0xbe0415c9	-0.12898935
187	0x3e9d5cb9	0.30734804
188	0xbe158338	-0.14600837
189	0x3eb88a91	0.36043218
190	0x3e9743c3	0.29543886
191	0xbdd22406	-0.10260777
192	0x3eba8c2d	0.3643507
193	0x3ec5077f	0.38482282
194	0xbdb27d8f	-0.08715355
195	0x3e90f10f	0.28308913
196	0xbd03e286	-0.03219845
197	0x3e9e334b	0.30898508
198	0xbd2d871b	-0.042365175
199	0x3e847a2a	0.25874454
200	0x3e8edddc	0.2790364
201	0xbdf10e0e	-0.11770259
202	0xbf10f38c	-0.56621623
203	0xbda5d28c	-0.08096799
204	0xbda32dfd	-0.07967756
205	0x3eeb2213	0.45924434
206	0xbef88a61	-0.48543075
207	0x3e5975da	0.21236363
208	0xbd842660	-0.06452632
209	0xbdacf7ed	-0.084457256
210	0xbcf81700	-0.030284405
211	0xbd8edb95	-0.06975476
212	0x3eabbff0	0.33544874
213	0xbdc05cbc	-0.09392688
214	0xbea163ee	-0.31521553
215	0xbf0ec0df	-0.5576305
216	0x3eacf4a4	0.33780396
217	0xbeb48510	-0.3525777
218	0x3e96adcc	0.29429471
219	0xbf1a77d6	-0.60339105
220	0x3eaa621f	0.33277985
221	0xbf208b1b	-0.6271226
222	0xbdfe216c	-0.124087185
223	0xbdf3a797	-0.118971996
224	0x3ea4cb1e	0.32186216
225	0xbc929764	-0.017894454
226	0x3eb1c237	0.34718487
227	0x3e95b676	0.2924077
228	0xbd8f2ad3	-0.0699059
229	0x3e8e8972	0.27839237
230	0xbec7cede	-0.39025015
231	0x3ea477eb	0.3212274
232	0x3eeeb0e2	0.46619326
233	0xbd7493e5	-0.059711356
234	0xbd9decda	-0.077111915
235	0xbeef6f49	-0.4676459
236	0x3edd436a	0.43215495
237	0xbdb3c31f	-0.08777451
238	0xbe262a32	-0.16227034
239	0x3e50d201	0.2039261
240	0xbe4eb453	-0.20185976
241	0xbe06a5b2	-0.13149145
242	0xbb9066bc	-0.004406778
243	0x3e4cffe9	0.20019497
244	0xbf225017	-0.6340346
245	0xbed77284	-0.42079556
246	0xbd3e7824	-0.046501294
247	0x3ea66b29	0.32503632
248	0x3ebb5484	0.36587918
249	0x3e2ea922	0.17056707
250	0xbf0de91a	-0.5543381
251	0x3e8c016b	0.27344832
252	0xbd593593	-0.053029608
253	0x3e7daf6b	0.24773948
254	0xbd924d74	-0.07143679
255	0xbd8341d3	-0.06409039

network_layers.2.weight f4 [512]
0	0x3f8ef9b2	1.1169951
1	0x3f66c147	0.9013867
2	0x3f960e87	1.1723183
3	0x3f407d24	0.7519095
4	0x3f20c3c8	0.6279874
5	0x3f82f0de	1.0229757
6	0x3f572298	0.8403716
7	0x3fb5da61	1.4207269
8	0x3f682e4c	0.90695643
9	0x3fa14ff3	1.2602524
10	0x3f4d39c5	0.80166274
11	0x3f33aee2	0.70188725
12	0x3f85b5f0	1.0446148
13	0x3f992b05	1.1966254
14	0x3f361f25	0.7114127
15	0x3fc947e1	1.5725061
16	0x3fb1a0f1	1.387724
17	0x3f72c195	0.9482663
18	0x3f55fe05	0.8359073
19	0x3f42971b	0.7601182
20	0x3f428038	0.75976896
21	0x3fb53e12	1.4159567
22	0x3f48d670	0.78452206
23	0x3f55d3ac	0.8352611
24	0x3f3ae198	0.7300048
25	0x3fc27358	1.519145
26	0x3f481d01	0.78169256
27	0x3f311cbb	0.69184464
28	0x3f837e1b	1.0272859
29	0x3fa3b690	1.2790089
30	0x3fbe1a31	1.4851743
31	0x3fcf6b33	1.620459
32	0x3f83f3df	1.0308799
33	0x3f647206	0.89236486
34	0x3f8c522c	1.0962577
35	0x3f65673b	0.8961064
36	0x3f53ce00	0.82736206
37	0x3f477669	0.77915055
38	0x3f6acde7	0.9172043
39	0x3f45bbb7	0.77239555
40	0x3f472ce7	0.7780289
41	0x3fa0278b	1.2512068
42	0x3f5f99d1	0.8734408
43	0x3f40b0ed	0.7526997
44	0x3f6b9053	0.92017096
45	0x3fa0c749	1.2560817
46	0x3f55eac6	0.8356136
47	0x3fb2ff36	1.3984134
48	0x3f8ba14c	1.0908599
49	0x3f6c9dc0	0.9242821
50	0x3f87d064	1.0610471
51	0x3faad146	1.3345115
52	0x3fbb120d	1.4614884
53	0x3f798393	0.9746639
54	0x3fa6bc68	1.3026247
55	0x3f5b6317	0.85698074
56	0x3f239da4	0.63912416
57	0x3f3dd14d	0.7414749
58	0x3f647f03	0.89256305
59	0x3f10ffb4	0.5664017
60	0x3f874541	1.056801
61	0x3faf1ac1	1.368004
62	0x3f7e62a7	0.9936928
63	0x3f83ce64	1.029736
64	0x3f78cf4f	0.9719133
65	0x3f3e803b	0.74414414
66	0x3f343e4f	0.70407575
67	0x3f5f7778	0.8729167
68	0x3f5798f8	0.84217787
69	0x3f83f962	1.031048
70	0x3f81c31a	1.0137665
71	0x3f8bbc7d	1.0916897
72	0x3f4eb2d5	0.80741626
73	0x3f5b6651	0.85703
74	0x3f79a2eb	0.9751422
75	0x3ef1d51f	0.4723291
76	0x3f787a79	0.9706188
77	0x3fbc0bca	1.4691098
78	0x3f2f9b41	0.68596274
79	0x3f8ad20e	1.0845354
80	0x3f24c137	0.6435732
81	0x3f69dbf0	0.91351223
82	0x3f903770	1.1266918
83	0x3f4eea97	0.80826706
84	0x3f34e6b8	0.7066455
85	0x3f9656fe	1.1745298
86	0x3f5c5154	0.86061597
87	0x3f85c7d9	1.0451614
88	0x3f859732	1.0436766
89	0x3f6c25ec	0.92245364
90	0x3f9e0706	1.2345893
91	0x3f80f8c5	1.0075918
92	0x3f5c9b49	0.86174446
93	0x3f8a2dee	1.0795267
94	0x3f61d713	0.882188
95	0x3f3bd20f	0.733674
96	0x3f85ba45	1.044747
97	0x3f73d2d6	0.95243585
98	0x3f618af0	0.88102627
99	0x3f873747	1.0563744
100	0x3f857f1b	1.0429415
101	0x3fb09cd5	1.3797861
102	0x3f88c149	1.0683986
103	0x3f2ea75e	0.6822413
104	0x3f8b7788	1.0895853
105	0x3f60c1dd	0.8779581
106	0x3f90c25e	1.1309316
107	0x3f97fe65	1.187451
108	0x3f4ee175	0.8081277
109	0x3f3bd7e0	0.73376274
110	0x3f820f4b	1.0160917
111	0x3f7c81a3	0.9863531
112	0x3f533e47	0.825169
113	0x3f69122b	0.9104335
114	0x3f8be3fc	1.092895
115	0x3f745baa	0.9545237
116	0x3f5fc67e	0.8741225
117	0x3f551ddb	0.8324868
118	0x3f3d4652	0.73935425
119	0x3f2e2893	0.6803066
120	0x3f5a4160	0.85256004
121	0x3f1feb0f	0.62468046
122	0x3f908ff5	1.1293932
123	0x3faa6442	1.3311846
124	0x3fa6197f	1.2976531
125	0x3f271cf7	0.6527857
126	0x3f5aa0bf	0.8540153
127	0x3fcf4155	1.6191813
128	0x3f906e9c	1.1283755
129	0x3f2de89f	0.67933077
130	0x3f62d933	0.8861267
131	0x3f8bdddc	1.0927081
132	0x3f949484	1.1607823
133	0x3f5a6709	0.8531347
134	0x3fbeed3c	1.4916148
135	0x3fa9158b	1.3209699
136	0x3f445750	0.7669573
137	0x3f1e790e	0.61903465
138	0x3f596561	0.84920317
139	0x3f49e8bd	0.78870755
140	0x3f86eb84	1.0540624
141	0x3f70747f	0.9392776
142	0x3f72dcf5	0.94868404
143	0x3f91c318	1.1387663
144	0x3f5f58c2	0.8724481
145	0x3f53e8fd	0.82777387
146	0x3f8dae03	1.1068729
147	0x3f542fdd	0.82885534
148	0x3f63afc4	0.8894007
149	0x3f90e4f1	1.1319867
150	0x3f47a7f9	0.7799068
151	0x3f8cec59	1.1009628
152	0x3f82e000	1.0224609
153	0x3f9b1902	1.2117007
154	0x3fcb1adb	1.5867571
155	0x3f6a28f4	0.9146874
156	0x3fad4352	1.353617
157	0x3f62bd86	0.8857044
158	0x3f8025bb	1.0011514
159	0x3f823ba7	1.0174454
160	0x3f8dea13	1.1087059
161	0x3f6be770	0.9215002
162	0x3f497f3f	0.7870979
163	0x3f88fd1f	1.0702246
164	0x3f76dd0a	0.9643103
165	0x3f84694a	1.0344632
166	0x3f542873	0.8287422
167	0x3f8d088a	1.1018231
168	0x3f5d57a9	0.86461884
169	0x3f63a3a1	0.8892155
170	0x3f9dd687	1.2331094
171	0x3f7f4d0e	0.9972695
172	0x3f8a46b9	1.0802833
173	0x3f633c41	0.88763815
174	0x3f623bbf	0.88372415
175	0x3f23be91	0.63962656
176	0x3f4f9d8b	0.81099766
177	0x3f9becc2	1.2181628
178	0x3f7a52c3	0.97782534
179	0x3f99068a	1.195512
180	0x3eef06e3	0.46684942
181	0x3f83798f	1.0271472
182	0x3f797f06	0.9745945
183	0x3f89b544	1.0758443
184	0x3f91e6ec	1.1398597
185	0x3fba3fb3	1.455069
186	0x3f46d907	0.7767491
187	0x3f6593be	0.8967856
188	0x3f3df94f	0.7420854
189	0x3f5917ed	0.8480213
190	0x3f50d041	0.8156777
191	0x3f906543	1.1280903
192	0x3f6b88b9	0.920055
193	0x3f7b0eca	0.9806944
194	0x3f88b5ac	1.0680442
195	0x3f406d4a	0.7516676
196	0x3f533275	0.82498866
197	0x3f0ce504	0.5503695
198	0x3f8e4c9a	1.1117127
199	0x3f653029	0.8952661
200	0x3f627571	0.8846045
201	0x3f6daa6d	0.92838174
202	0x3f9d11e6	1.2271087
203	0x3f7c735d	0.9861353
204	0x3f5858ea	0.8451067
205	0x3f2569e5	0.6461471
206	0x3f8a61f0	1.0811138
207	0x3f3780a1	0.7168065
208	0x3f9b5a75	1.213698
209	0x3fa22735	1.2668215
210	0x3f7820fa	0.9692532
211	0x3f84fe2f	1.0390071
212	0x3f3f5d24	0.74751496
213	0x3f6491c4	0.8928492
214	0x3f9cc62f	1.2247981
215	0x3fb0a424	1.3800092
216	0x3f6d5489	0.92707115
217	0x3f7fc0b8	0.9990344
218	0x3f3386a0	0.70127296
219	0x3f9db74e	1.2321565
220	0x3f3f6cef	0.74775594
221	0x3f809a48	1.0047083
222	0x3f63bb50	0.8895769
223	0x3f8823b8	1.06359
224	0x3f131730	0.57457256
225	0x3fb2bf70	1.3964672
226	0x3f205eda	0.6264473
227	0x3f43450a	0.7627722
228	0x3f98f9ff	1.1951293
229	0x3f2b7b0f	0.6698465
230	0x3fa10782	1.2580416
231	0x3f2fde57	0.6869864
232	0x3f73e7d4	0.95275617
233	0x3fb378c7	1.4021233
234	0x3f876d9f	1.0580329
235	0x3f810957	1.0080975
236	0x3f3d8b22	0.74040425
237	0x3f5fe601	0.87460333
238	0x3f380337	0.71879905
239	0x3f3a7579	0.728355
240	0x3f5e3f8f	0.8681573
241	0x3f95cbb8	1.1702795
242	0x3f2e9f06	0.682114
243	0x3f4134d1	0.75471216
244	0x3fa9b6c0	1.3258896
245	0x3f885e84	1.0653844
246	0x3f638ec7	0.88889736
247	0x3f28c36c	0.6592319
248	0x3f34f6f7	0.7068934
249	0x3eee8db0	0.46592474
250	0x3f85ca94	1.0452447
251	0x3f820f51	1.0160924
252	0x3f55bb08	0.8348851
253	0x3f2ff371	0.6873084
254	0x3f41ffc5	0.757809
255	0x3f588b3c	0.84587455

network_layers.2.bias f4 [512]
0	0x3e912dac	0.28355157
1	0x3dcfbe69	0.1014374
2	0x3e5f60b2	0.2181423
3	0x3e4a970e	0.19784185
4	0x3e1976e3	0.14986758
5	0x3e5d5aa6	0.21616611
6	0x3e2f5db7	0.17125593
7	0x3ea47f65	0.32128444
8	0x3d373756	0.044730507
9	0x3e8c4aa8	0.27400708
10	0x3e417dc0	0.18895626
11	0x3e876fcf	0.2645249
12	0x3e413ca2	0.18870786
13	0x3d9c8875	0.076432146
14	0x3e0e54f5	0.13899596
15	0x3e60ad71	0.21941163
16	0x3e55403d	0.20825286
17	0x3e5afb15	0.21384843
18	0x3e79683f	0.24356173
19	0x3e66f253	0.22553377
20	0x3e33472e	0.17507622
21	0x3e21a4c1	0.15785505
22	0x3e241dde	0.16027018
23	0x3dfe3fb8	0.12414497
24	0x3c625b6a	0.01381574
25	0x3dab03de	0.08350347
26	0x3ea83f72	0.32860905
27	0x3e1538e2	0.1457248
28	0x3e4aef15	0.19817765
29	0x3e48de6f	0.19616102
30	0x3e40bfae	0.1882312
31	0x3e845cd2	0.25852066
32	0x3e48d073	0.19610767
33	0x3dd28755	0.10279719
34	0x3df4c3a4	0.11951378
35	0x3dcb92e9	0.0994013
36	0x3e4adead	0.19811507
37	0x3e507739	0.2035798
38	0x3e369ec9	0.17834009
39	0x3e7c4b9c	0.24638218
40	0x3e7aa155	0.24475606
41	0x3dab1d57	0.083552055
42	0x3e9ca301	0.30593112
43	0x3e9952a4	0.29945862
44	0x3dd4b674	0.10386363
45	0x3debf1d3	0.11520734
46	0x3e22a34f	0.1588261
47	0x3e53b313	0.2067378
48	0x3e146535	0.14491732
49	0x3e4905bf	0.19631098
50	0x3e1cf2c8	0.15326989
51	0x3e547e39	0.20751275
52	0x3dc8adb0	0.09798753
53	0x3d4d2860	0.050087333
54	0x3e67c283	0.22632794
55	0x3e5fef7a	0.21868697
56	0x3e11901b	0.14215128
57	0x3e611462	0.21980432
58	0x3e03d13a	0.12872782
59	0x3deaeef5	0.11471359
60	0x3e80ab36	0.25130624
61	0x3e1fe2ea	0.15613905
62	0x3eb4d883	0.35321435
63	0x3e1490c6	0.14508352
64	0x3e002a3c	0.12516111
65	0x3e8a3129	0.2699063
66	0x3dcd9b4a	0.10039385
67	0x3e2cad68	0.16863024
68	0x3e6974a3	0.227984
69	0x3e925997	0.28583977
70	0x3cc39c75	0.023878315
71	0x3de61d58	0.112360656
72	0x3e78cc80	0.2429676
73	0x3d8a332b	0.06748041
74	0x3e830368	0.25588536
75	0x3e446505	0.19179161
76	0x3e2e9912	0.17050579
77	0x3e3e016a	0.18555227
78	0x3e51a8f5	0.20474608
79	0x3e28bbdf	0.16477917
80	0x3e1bc08e	0.15210173
81	0x3dde9d6b	0.10869869
82	0x3e2c55a5	0.16829546
83	0x3e5f783c	0.2182321
84	0x3e6958d4	0.22787791
85	0x3e736de6	0.23772392
86	0x3e27cb01	0.16386034
87	0xbd4728fc	-0.04862307
88	0x3e3f1770	0.18661284
89	0x3e3b64c4	0.18300158
90	0x3e6da1df	0.2320628
91	0x3de8cf20	0.11367631
92	0x3dabd9de	0.08391164
93	0x3dc5ee26	0.09664564
94	0x3e684b3f	0.22684954
95	0x3e1aa7d0	0.15103078
96	0x3e915598	0.28385615
97	0x3e5317da	0.20614567
98	0x3e024eb3	0.12725334
99	0x3e657af4	0.22410184
100	0x3e498548	0.19679749
101	0x3e2dbbbe	0.16966149
102	0x3e8b027a	0.27150327
103	0x3c8fc618	0.017550513
104	0x3dd21060	0.102570295
105	0x3e274973	0.16336612
106	0x3df1110b	0.11770829
107	0x3ddd5fb4	0.108092695
108	0x3e2aa96f	0.16666196
109	0x3e8302a5	0.25587955
110	0x3e855bc4	0.26046574
111	0x3c129958	0.008947693
112	0x3e1f0a71	0.15531327
113	0x3e8276be	0.25481218
114	0x3d520d08	0.05128196
115	0xbd863616	-0.06553285
116	0x3e0eb2e1	0.13935424
117	0x3e060c65	0.13090666
118	0x3e78d1fd	0.24298854
119	0x3e8f8de6	0.28037947
120	0x3e640d0f	0.22270606
121	0x3e021ff6	0.12707505
122	0x3e81b9d8	0.253371
123	0x3d1ac56f	0.037785944
124	0x3e837180	0.2567253
125	0x3e743552	0.23848465
126	0x3e7831ee	0.24237797
127	0x3e872cfd	0.2640151
128	0x3dff6e0c	0.12472162
129	0x3e5e6d2f	0.21721338
130	0x3e1fb006	0.15594491
131	0x3e59e4b0	0.21278644
132	0x3e1fd2bc	0.15607733
133	0x3e983d3e	0.29734224
134	0x3e702d8c	0.23454875
135	0x3e25c677	0.1618899
136	0x3e18e235	0.14930041
137	0x3e13fd4f	0.14452098
138	0x3e0c82fd	0.13721843
139	0x3dd4948d	0.10379896
140	0x3e58de62	0.21178582
141	0x3e62f758	0.22164667
142	0x3e43d60c	0.19124621
143	0x3e4f1c43	0.20225625
144	0x3e8307ce	0.25591892
145	0x3cd8c729	0.026462154
146	0x3e2f0a76	0.17093834
147	0x3e2af8dd	0.16696496
148	0x3e837064	0.25671685
149	0x3e9d690e	0.30744213
150	0x3e7a4263	0.24439387
151	0x3e30ca16	0.1726459
152	0x3e78316f	0.24237607
153	0x3e2c710d	0.1684
154	0x3e47ea73	0.19523029
155	0x3e455e4c	0.19274253
156	0x3e4d728b	0.20063226
157	0x3df999f4	0.12187567
158	0x3df3a179	0.11896033
159	0x3de63b85	0.11241821
160	0x3e5cdfe9	0.2156979
161	0x3e5282b3	0.2055767
162	0x3e25adf2	0.16179636
163	0x3e63a9b6	0.22232708
164	0x3e251963	0.16122966
165	0x3e701595	0.23445733
166	0x3e69a607	0.2281724
167	0x3e5d427a	0.2160739
168	0x3e898cc4	0.26865208
169	0x3e8815d5	0.26579157
170	0x3e3c407b	0.18383972
171	0x3e4ee7b3	0.20205574
172	0x3e0c61d4	0.13709193
173	0x3ea771b6	0.32703942
174	0x3e99fe60	0.30076885
175	0x3e80ca30	0.25154257
176	0x3e3b2817	0.18277012
177	0x3d888a8a	0.06667049
178	0x3e67da22	0.22641805
179	0x3e1150b2	0.14190939
180	0x3e42c12a	0.19018999
181	0x3d155f22	0.03646768
182	0x3e561584	0.20906645
183	0x3e8d9c1b	0.27658162
184	0x3e6add9f	0.22936104
185	0x3e848503	0.2588273
186	0x3e01857d	0.12648578
187	0x3e1b83c7	0.15186988
188	0x3d553ef5	0.052061994
189	0x3e452031	0.19250561
190	0x3e94e487	0.29080603
191	0x3e824694	0.25444472
192	0x3e84cce1	0.2593756
193	0x3e8a11a4	0.26966584
194	0x3db8df2b	0.09026941
195	0x3e9ec12c	0.31006753
196	0x3e06825d	0.13135667
197	0x3e810d39	0.252054
198	0x3e6e1d7d	0.23253436
199	0x3c8619d7	0.016369743
200	0x3e7d326f	0.2472627
201	0x3dbca771	0.092116244
202	0x3d332a22	0.043741353
203	0x3e3423b0	0.17591739
204	0x3e16bbcf	0.14720081
205	0x3df66e97	0.12032812
206	0x3e69ce25	0.22832544
207	0x3e37dc15	0.17955048
208	0x3e748b56	0.23881277
209	0x3ea92210	0.330338
210	0x3e065414	0.13118011
211	0x3e7a38a4	0.24435669
212	0x3e1049bd	0.14090629
213	0x3e5bb2e2	0.21454957
214	0x3e2e26b1	0.17006947
215	0x3e1521b0	0.14563632
216	0x3e8e8454	0.27835333
217	0x3e70ed23	0.2352796
218	0x3e8f921c	0.2804116
219	0x3e422b95	0.18961938
220	0x3e3319e7	0.1749035
221	0x3e66ea54	0.22550327
222	0x3e3c61d6	0.18396696
223	0x3d962f6f	0.07333266
224	0x3ddc6978	0.10762304
225	0x3e2d8c1b	0.16947977
226	0x3e3bab68	0.18327105
227	0x3e84a532	0.25907284
228	0x3e76168d	0.2403204
229	0x3e2c5594	0.1682952
230	0x3e47ad71	0.19499756
231	0x3e0aa455	0.1353925
232	0x3d9cbe0e	0.076534376
233	0x3e8338a9	0.25629166
234	0x3de2084e	0.1103674
235	0x3dd382db	0.10327693
236	0x3e12c146	0.1433154
237	0x3e195bac	0.14976376
238	0x3e5dbca6	0.21653995
239	0x3e819022	0.25305277
240	0xbd4c0459	-0.049808834
241	0x3e310347	0.17286406
242	0x3e401e54	0.1876157
243	0x3dc52888	0.09626871
244	0x3df5f72b	0.12010034
245	0x3e3783d9	0.1792139
246	0x3dde809d	0.10864375
247	0x3e50bcb4	0.20384485
248	0x3e90b6eb	0.28264555
249	0x3df02250	0.117252946
250	0x3da5105c	0.08059761
251	0x3e9cd225	0.30629078
252	0x3e4863ec	0.19569367
253	0x3e607fae	0.21923706
254	0x3d5ffaa4	0.05468239
255	0x3e8a05f4	0.26957667

network_layers.2.running_mean f4 [512]
0	0x3d55ba47	0.0521796
1	0x3db61268	0.088902295
2	0x3e0adbf0	0.13560462
3	0x3eb95d3c	0.36203945
4	0x3ed988de	0.42487234
5	0x3ddcd9b5	0.10783712
6	0x3e490e6f	0.19634412
7	0x3e3213b7	0.17390333
8	0x3dcd3474	0.1001977
9	0x3e41f298	0.18940198
10	0x3eec03f6	0.46096772
11	0x3ed9612a	0.42456943
12	0x3d81345e	0.063088164
13	0x3dc49040	0.09597826
14	0x3e9d539f	0.3072786
15	0x3df6b98c	0.12047109
16	0x3de8eb80	0.11373043
17	0x3ec7add4	0.38999808
18	0x3ea9a3ce	0.33132786
19	0x3dde0171	0.10840119
20	0x3f127107	0.57203716
21	0x3d9d215a	0.07672377
22	0x3eb3a4c5	0.35086647
23	0x3dfa4aab	0.12221273
24	0x3e9f8eea	0.31163722
25	0x3c66f737	0.014097027
26	0x3ee510f4	0.44739497
27	0x3e257f00	0.16161728
28	0x3e8bdb7a	0.27315885
29	0x3d792286	0.06082394
30	0x3d864b81	0.0655737
31	0x3da1f436	0.07907908
32	0x3e4a5dc4	0.19762331
33	0x3dc16162	0.094424024
34	0x3e1a9432	0.15095595
35	0x3e5184db	0.20460837
36	0x3e8bac00	0.27279663
37	0x3ea800a8	0.32813
38	0x3e888f34	0.26671755
39	0x3e1911b3	0.14948158
40	0x3f04b49f	0.51838106
41	0x3d690a82	0.056894787
42	0x3e50404c	0.20337027
43	0x3eb4da1f	0.35322663
44	0x3dc638a3	0.09678771
45	0x3bde6fec	0.0067882445
46	0x3e600e67	0.21880494
47	0x3dc20259	0.09473104
48	0x3d94e838	0.07270855
49	0x3ee27d5e	0.44236273
50	0x3d55153b	0.0520222
51	0x3e0b5502	0.13606647
52	0x3cce2ca8	0.025167778
53	0x3d849dc4	0.06475404
54	0x3dcae80b	0.0990754
55	0x3edd802d	0.43261853
56	0x3eb688d0	0.35651255
57	0x3edd5ad7	0.43233368
58	0x3df8b647	0.12144142
59	0x3ed8f72e	0.42376083
60	0x3d79c95e	0.060983054
61	0x3dd6624b	0.10467967
62	0x3ed42903	0.4143754
63	0x3d56ac98	0.052410692
64	0x3df69177	0.12039464
65	0x3ea6345b	0.3246182
66	0x3f05d66e	0.5228032
67	0x3ed5047d	0.41604987
68	0x3ed2166c	0.41032732
69	0x3dc71a70	0.097218394
70	0x3ddd7e19	0.10815067
71	0x3da8cf6c	0.082426876
72	0x3e9a81ec	0.30177248
73	0x3d9d8665	0.07691649
74	0x3d77a888	0.06046346
75	0x3ee923e0	0.45535183
76	0x3dd6f085	0.10495094
77	0x3dc7df67	0.097594075
78	0x3eede693	0.46464977
79	0x3e332b13	0.174969
80	0x3e90a75f	0.28252694
81	0x3d896872	0.067093745
82	0x3e359d3c	0.17735761
83	0x3ebefa80	0.3730049
84	0x3ebe66c6	0.37187785
85	0x3e0522cc	0.13001555
86	0x3ebf432a	0.3735593
87	0x3dc6e907	0.09712415
88	0x3dfc27ba	0.12312265
89	0x3e82c161	0.2553816
90	0x3e242444	0.16029459
91	0x3e42856c	0.18996209
92	0x3e109400	0.14118958
93	0x3db698d2	0.08915867
94	0x3ea3d2ac	0.31996667
95	0x3edf9b4a	0.43673164
96	0x3eb7bade	0.35884756
97	0x3eb21b51	0.34786466
98	0x3ecc5158	0.3990581
99	0x3e19df6d	0.15026636
100	0x3ee050bc	0.43811595
101	0x3d5691d0	0.05238515
102	0x3d8e5e9b	0.06951638
103	0x3e49da7f	0.19712256
104	0x3d62a561	0.0553335
105	0x3e4a68bc	0.19766515
106	0x3d139414	0.03602989
107	0x3d0be9be	0.03415846
108	0x3dea83dc	0.114509314
109	0x3ef1861f	0.4717264
110	0x3e0d8dd4	0.13823634
111	0x3d5e4242	0.054262407
112	0x3e5443d0	0.20728993
113	0x3d8ade21	0.06780649
114	0x3da722b9	0.0816092
115	0x3dab6404	0.08368686
116	0x3ef28b51	0.47371915
117	0x3ebc0b53	0.3672739
118	0x3eb78166	0.3584091
119	0x3ee2c6ca	0.4429229
120	0x3e83a80e	0.25714153
121	0x3ebf63ba	0.37380773
122	0x3e747050	0.23870969
123	0x3d1bbc7b	0.038021546
124	0x3e0bba2e	0.1364524
125	0x3eb1a603	0.3469697
126	0x3ecf7d63	0.4052535
127	0x3da1fe4a	0.0790983
128	0x3d7ac203	0.06122018
129	0x3e02be25	0.12767847
130	0x3e1fd026	0.15606746
131	0x3d43e33a	0.047824122
132	0x3e1f5603	0.15560155
133	0x3dc5b10d	0.096529104
134	0x3d801f02	0.06255914
135	0x3d36dc16	0.044643484
136	0x3ec5569b	0.38542637
137	0x3ec1f0f0	0.37879133
138	0x3eda9455	0.42691293
139	0x3e029745	0.12753017
140	0x3e03ff41	0.1289034
141	0x3d9923fc	0.074775666
142	0x3e017f8c	0.12646312
143	0x3deb88fe	0.115007386
144	0x3ecaa044	0.39575398
145	0x3dab8036	0.08374064
146	0x3db65800	0.089035034
147	0x3e8c0e05	0.27354446
148	0x3ec906d7	0.3926303
149	0x3ed2e611	0.41191152
150	0x3ef3c8f6	0.4761426
151	0x3e1f3b3c	0.1554994
152	0x3e5c5048	0.21515
153	0x3e0c037b	0.13673203
154	0x3d3e280d	0.046424914
155	0x3e1d7770	0.15377593
156	0x3e0d647c	0.13807863
157	0x3e7e9225	0.24860437
158	0x3d639d11	0.055569712
159	0x3e4a38ba	0.19748202
160	0x3d3b4fba	0.04573033
161	0x3ef667c4	0.48126042
162	0x3ee1778b	0.44036517
163	0x3dfc839f	0.12329792
164	0x3d8b2702	0.067945495
165	0x3e28deac	0.16491193
166	0x3e3af6d5	0.18258221
167	0x3e273246	0.16327772
168	0x3ebdecc0	0.37094688
169	0x3e8d7c2e	0.27633804
170	0x3d2a1c2f	0.041530784
171	0x3dd6baa5	0.10484818
172	0x3e0619fb	0.13095848
173	0x3eccc2e1	0.3999243
174	0x3e938095	0.28809038
175	0x3f012412	0.50445664
176	0x3e9f7f29	0.31151703
177	0x3c244866	0.010027027
178	0x3e7a6a6e	0.24454662
179	0x3dc3ddae	0.095637664
180	0x3eb7470f	0.357964
181	0x3dd4ea8c	0.10396299
182	0x3e0d625e	0.13807055
183	0x3e0413c9	0.12898172
184	0x3d7140d4	0.058899716
185	0x3df1a482	0.117989555
186	0x3e2c5f06	0.16833124
187	0x3ed7894e	0.42096943
188	0x3e2a3ddd	0.16625161
189	0x3ed32b86	0.41244143
190	0x3ec82196	0.39088124
191	0x3e27ca21	0.163857
192	0x3ed3d02f	0.4136977
193	0x3edcd6fb	0.43132767
194	0x3e003d10	0.12523293
195	0x3eb0458b	0.34428057
196	0x3e6d07a9	0.23147453
197	0x3ee3f0d0	0.44519663
198	0x3e566210	0.20935845
199	0x3e9e2356	0.30886334
200	0x3ec8f855	0.39251962
201	0x3dc64a6f	0.09682166
202	0x3d934a45	0.071919
203	0x3e16c493	0.14723425
204	0x3e4e57b2	0.2015064
205	0x3f056f15	0.5212262
206	0x3d87eb43	0.066366695
207	0x3e952bdb	0.29135022
208	0x3dfe109c	0.12405512
209	0x3e2d93e2	0.16950944
210	0x3e4647ea	0.1936337
211	0x3e41bd4a	0.18919864
212	0x3ede6cd6	0.4344241
213	0x3e208b3b	0.15678112
214	0x3daf2563	0.08552053
215	0x3cdb2f75	0.026756028
216	0x3ec5b9b3	0.3861824
217	0x3d57e368	0.052707106
218	0x3eba91ce	0.36439365
219	0x3d056b7f	0.03257322
220	0x3ed5d5f8	0.41764808
221	0x3cfaf93c	0.030636422
222	0x3e0523ea	0.13001981
223	0x3e087f2a	0.13329759
224	0x3ec53c61	0.38522628
225	0x3e6d8fb9	0.23199357
226	0x3ed8bd92	0.4233213
227	0x3ec2f05e	0.3807401
228	0x3de82ff3	0.113372706
229	0x3eba501b	0.3638924
230	0x3dc2d0d2	0.095124856
231	0x3ece2957	0.40265915
232	0x3f02e0bf	0.51124185
233	0x3e07b0b1	0.13250996
234	0x3e00d261	0.12580253
235	0x3d3befa9	0.045882855
236	0x3f043cc4	0.5165522
237	0x3de84c27	0.1134265
238	0x3db57be7	0.08861523
239	0x3eab4038	0.33447433
240	0x3e0d177e	0.13778493
241	0x3df39e44	0.11895421
242	0x3e6ba99a	0.23013917
243	0x3e9cffbf	0.3066387
244	0x3d055dbe	0.032560103
245	0x3d833077	0.06405728
246	0x3e0da92e	0.13834068
247	0x3ed4f307	0.41591665
248	0x3ee4ef45	0.44713798
249	0x3eb34bce	0.35018772
250	0x3d46e387	0.04855683
251	0x3ea59d8d	0.32346764
252	0x3e408896	0.18802103
253	0x3eaea30b	0.34108767
254	0x3dd6e715	0.10493294
255	0x3e28a616	0.16469607

network_layers.2.running_var f4 [512]
0	0x3de5f319	0.11228008
1	0x3e413e1c	0.18871349
2	0x3e8e60ea	0.27808315
3	0x3e4c4300	0.19947433
4	0x3ea4a4f8	0.3215711
5	0x3e71f9c1	0.2363043
6	0x3f286649	0.65781075
7	0x3f1e05ad	0.6172741
8	0x3e8015c4	0.25016606
9	0x3f02c014	0.5107434
10	0x3ea840ad	0.32861844
11	0x3ea1c2c8	0.3159392
12	0x3e3e352b	0.1857497
13	0x3e685342	0.2268801
14	0x3ea9bedf	0.33153436
15	0x3e84acb7	0.2591302
16	0x3e8aace3	0.27085027
17	0x3e9049a0	0.2818117
18	0x3e6241ef	0.22095464
19	0x3e27bfc3	0.16381745
20	0x3f032604	0.5122988
21	0x3e6acc72	0.22929552
22	0x3e7ce080	0.24695015
23	0x3e8041b3	0.25050125
24	0x3e78515b	0.24249785
25	0x3cb6b886	0.022304785
26	0x3e551965	0.20810468
27	0x3ea8a29e	0.32936567
28	0x3f3ceefd	0.7380217
29	0x3de3c6c6	0.111218974
30	0x3dbed059	0.09317083
31	0x3e5a5a21	0.21323444
32	0x3ef64972	0.4810291
33	0x3e0d5100	0.1380043
34	0x3ec484bc	0.38382518
35	0x3f10208d	0.5629967
36	0x3e5c0e6c	0.21489877
37	0x3eca578f	0.39519927
38	0x3e4c7910	0.19968057
39	0x3ee28207	0.44239828
40	0x3f094da4	0.53634095
41	0x3e094938	0.13406837
42	0x3f04a557	0.5181479
43	0x3e074a4a	0.13211933
44	0x3e399095	0.1812156
45	0x3bbe8c1b	0.0058150417
46	0x3f3efb9e	0.7460269
47	0x3e864b57	0.26229355
48	0x3e0e36ed	0.1388814
49	0x3e57837d	0.21046253
50	0x3e03dec8	0.12877953
51	0x3e90fff4	0.28320277
52	0x3d362db0	0.044477165
53	0x3dc16c86	0.09444527
54	0x3e69c6bc	0.22829717
55	0x3e80e1ec	0.25172365
56	0x3e97b541	0.29630473
57	0x3ea04177	0.31299946
58	0x3e84b53f	0.2591953
59	0x3ee045c9	0.43803242
60	0x3e078a59	0.13236369
61	0x3e2ad203	0.16681676
62	0x3e7a6e6f	0.2445619
63	0x3da3c881	0.079972275
64	0x3e2dd4af	0.16975664
65	0x3e937146	0.28797358
66	0x3ea03c82	0.31296164
67	0x3e6a707c	0.22894472
68	0x3e8cf69f	0.27531907
69	0x3e498d25	0.19682749
70	0x3e36c205	0.1784745
71	0x3e236876	0.15957817
72	0x3e7a9f6b	0.24474876
73	0x3df8b3a3	0.12143638
74	0x3dc6dbd2	0.09709896
75	0x3ea448d0	0.32086802
76	0x3e59502c	0.2122199
77	0x3e979b15	0.29610506
78	0x3ea7de0c	0.32786596
79	0x3ebb112c	0.3653654
80	0x3eae47e6	0.3403923
81	0x3e128b55	0.14310963
82	0x3ec3ca36	0.38240212
83	0x3ebda066	0.37036437
84	0x3e71b102	0.2360268
85	0x3ecab5b7	0.39591762
86	0x3e88757d	0.26652136
87	0x3ea08c79	0.31357172
88	0x3e577b68	0.2104317
89	0x3e16b8ed	0.14718981
90	0x3ec1904b	0.378054
91	0x3f335778	0.7005534
92	0x3e68367d	0.22677036
93	0x3e770f1d	0.24126859
94	0x3e317eed	0.17333575
95	0x3e96f28c	0.29481924
96	0x3e3c2917	0.1837505
97	0x3e47e31b	0.19520228
98	0x3e4d5c80	0.20054817
99	0x3e857972	0.26069218
100	0x3e70dc5a	0.23521557
101	0x3e0ab21f	0.1354451
102	0x3e1a19bc	0.1504888
103	0x3e892c9c	0.26791847
104	0x3dd947c9	0.10609395
105	0x3eed9088	0.4639933
106	0x3d6d3318	0.057910055
107	0x3d828f17	0.063749485
108	0x3e17e724	0.14834267
109	0x3ea5881d	0.3233041
110	0x3ebc5bdb	0.3678883
111	0x3dec2ffd	0.115325905
112	0x3f479ba6	0.77971876
113	0x3e0ea1ef	0.1392896
114	0x3e392c9a	0.1808342
115	0x3e59e332	0.21278074
116	0x3e533c9d	0.20628591
117	0x3e31adea	0.17351499
118	0x3ea4ac74	0.3216282
119	0x3e72d268	0.23713076
120	0x3dfdb8e5	0.123887815
121	0x3e4bb74a	0.19894138
122	0x3f30b5ff	0.69027704
123	0x3d98c8c3	0.07460167
124	0x3ec15797	0.37762138
125	0x3e813183	0.25233087
126	0x3e6e48a2	0.23269895
127	0x3e24519a	0.16046754
128	0x3e1d747a	0.15376464
129	0x3e7a0901	0.24417497
130	0x3e9534ae	0.29141754
131	0x3db6ddd5	0.0892903
132	0x3ed90fdd	0.42394915
133	0x3e1c2672	0.1524904
134	0x3dc9d027	0.09854155
135	0x3df9f8dd	0.1220567
136	0x3edc7ad7	0.4306247
137	0x3e80de07	0.25169393
138	0x3ea499c5	0.32148567
139	0x3e9d559f	0.30729386
140	0x3e6c7253	0.23090486
141	0x3e2b61ad	0.16736479
142	0x3ec9e8b5	0.39435354
143	0x3ea5ea83	0.3240548
144	0x3ef75d02	0.48313147
145	0x3e494f9b	0.19659273
146	0x3eaff7f2	0.34368855
147	0x3e2d5d5f	0.1693015
148	0x3e9d14e6	0.30680007
149	0x3e74cd29	0.23906387
150	0x3e91fe4f	0.28514335
151	0x3eabadb2	0.33530957
152	0x3efd5b49	0.49483708
153	0x3e79b2b3	0.24384575
154	0x3dd938c5	0.10606531
155	0x3e93f9d0	0.2890153
156	0x3ec4e4e8	0.38455892
157	0x3e0fadc2	0.14031127
158	0x3dfe7cc1	0.12426139
159	0x3f1d4673	0.6143562
160	0x3da6e878	0.08149809
161	0x3e4a135b	0.19733946
162	0x3e656873	0.22403125
163	0x3eb3ef70	0.35143614
164	0x3e315bad	0.17320128
165	0x3ecc08b4	0.3985039
166	0x3ec59a37	0.3859422
167	0x3ec0ea77	0.37678882
168	0x3ea1d4b3	0.3160759
169	0x3e6cfe7a	0.2314395
170	0x3dad061d	0.08448432
171	0x3e64c7df	0.2234187
172	0x3e8e3595	0.27775255
173	0x3ea0167f	0.31267163
174	0x3dfe0cd9	0.12404794
175	0x3f00bc23	0.50287074
176	0x3e78a835	0.24282916
177	0x3c2a1bf0	0.010382637
178	0x3f13c879	0.5772777
179	0x3e4a7add	0.19773431
180	0x3e9c6056	0.30542248
181	0x3e3d96af	0.18514512
182	0x3e84c1fa	0.25929242
183	0x3eac7f17	0.33690712
184	0x3dd658c0	0.104661465
185	0x3ea10610	0.31449938
186	0x3ed2d713	0.41179714
187	0x3ecb98d4	0.39765036
188	0x3eff4582	0.49857718
189	0x3e1f2e19	0.15544929
190	0x3e9eef75	0.31042066
191	0x3ed2716c	0.4110216
192	0x3e2e52f2	0.17023829
193	0x3e1b138e	0.15144178
194	0x3ea6f513	0.32608852
195	0x3e3d456c	0.18483514
196	0x3f143219	0.5788894
197	0x3f15aa8a	0.58463347
198	0x3f0820bd	0.53174955
199	0x3e1e6d80	0.15471458
200	0x3ea9d0ac	0.33167017
201	0x3e41187f	0.18857001
202	0x3e680b49	0.22660555
203	0x3eb1aec6	0.34703654
204	0x3f1465ed	0.57968026
205	0x3e83d0d5	0.25745264
206	0x3e11648a	0.14198509
207	0x3e380ea5	0.17974336
208	0x3e8a1041	0.26965526
209	0x3f0a4cba	0.54023325
210	0x3ef3a269	0.47584847
211	0x3f0ff988	0.5624013
212	0x3ee3431a	0.44387132
213	0x3eaaac07	0.3333437
214	0x3e4c3c28	0.19944823
215	0x3d54f264	0.051988974
216	0x3e4099a1	0.18808605
217	0x3d9cf4ba	0.076638654
218	0x3e5a3a48	0.21311295
219	0x3d5033b4	0.050830558
220	0x3e95cb74	0.29256785
221	0x3d8c0c56	0.068382904
222	0x3e85a304	0.26100934
223	0x3eb93998	0.36176753
224	0x3e377f00	0.1791954
225	0x3f275c28	0.65374994
226	0x3e95d40d	0.29263344
227	0x3e9e0494	0.30862868
228	0x3e494167	0.19653855
229	0x3e720f5f	0.23638676
230	0x3eaf1739	0.34197405
231	0x3e7bc033	0.24585037
232	0x3e37017e	0.17871663
233	0x3e7dfbc6	0.24803075
234	0x3e880ff1	0.26574662
235	0x3db301e4	0.08740595
236	0x3ed1f032	0.41003567
237	0x3e47755c	0.19478363
238	0x3e0c2366	0.13685378
239	0x3ebed3e9	0.3727105
240	0x3ebf66a2	0.3738299
241	0x3e943e38	0.2895372
242	0x3f0397d7	0.51403564
243	0x3e9a13ca	0.30093223
244	0x3d804f13	0.06265082
245	0x3df2365d	0.11826775
246	0x3e76fed0	0.24120641
247	0x3e891f03	0.26781473
248	0x3e868fff	0.26281735
249	0x3f06dd57	0.5268149
250	0x3db8b61c	0.090191096
251	0x3e0580f1	0.13037468
252	0x3eeeab04	0.4661485
253	0x3e6f3d9e	0.23363349
254	0x3e1ccbc9	0.15312113
255	0x3ecaa057	0.39575455

network_layers.4.weight f4 [256, 512]
0	0xbdf08045	-0.117432155
1	0x3d8f222c	0.0698894
2	0xbd9d21bf	-0.07672452
3	0x3c652c3d	0.013987598
4	0xbd9b9d01	-0.075983055
5	0x3d08d016	0.03340157
6	0x3d2e0812	0.042488165
7	0xbe09e0b0	-0.13464618
8	0xbded96e4	-0.11601046
9	0xbe3f2d2a	-0.18669572
10	0xbeb877ef	-0.36029002
11	0xbbc0d596	-0.0058848364
12	0x3b884678	0.004158791
13	0xbe0356ba	-0.12826052
14	0xbde289b9	-0.11061425
15	0xbc896297	-0.016770644
16	0xbe4c26e3	-0.19936709
17	0x3c6f1b11	0.0145938555
18	0xbc3f535f	-0.011677592
19	0x3e0f4c9b	0.13994066
20	0x3daa3acc	0.08311996
21	0xbecc2aa3	-0.3987628
22	0x3d30e56e	0.04318755
23	0xbe1f4661	-0.15554191
24	0xbdeb9276	-0.115025446
25	0x3ce63472	0.02810118
26	0xbe19fac5	-0.15037067
27	0x3bc120cb	0.005893802
28	0xbc05fd8e	-0.008178128
29	0x3e002149	0.12512697
30	0x3cba945a	0.022775818
31	0x3e47ea5a	0.19522992
32	0xbcbfdd48	-0.023420945
33	0x3d189952	0.037255593
34	0xbea0ea94	-0.3142897
35	0x3cf1bb10	0.029508144
36	0xbd1b9e39	-0.03799269
37	0x3da56276	0.080754206
38	0xbd3b3e20	-0.045713544
39	0xbd3276f4	-0.043570474
40	0xbe2448aa	-0.16043344
41	0x3d9b3260	0.07577968
42	0x3d2626fa	0.040564515
43	0xbe4e5445	-0.20149334
44	0x3d42460e	0.04743009
45	0x3cdb424c	0.026765011
46	0x3cebfea5	0.028807947
47	0xbde46fdc	-0.11154148
48	0x3e63c1a2	0.22241834
49	0xbcb9b28c	-0.022668146
50	0xbcbe1e8c	-0.023207925
51	0xbd41f0ad	-0.047348667
52	0xbe5e42b7	-0.21705137
53	0xbdb8b085	-0.090180434
54	0xbd2e2f7f	-0.042525765
55	0x3df80847	0.12110954
56	0x3d769def	0.06020921
57	0xbd574cd3	-0.0525635
58	0xbc5228f7	-0.01282715
59	0x3d905188	0.07046801
60	0xbe8d2a61	-0.27571395
61	0xbd6b5c39	-0.057460997
62	0x3e239c32	0.15977553
63	0xbe94471d	-0.28960505
64	0xbe086cf9	-0.1332282
65	0x3e022cf8	0.12712467
66	0xbe10b00d	-0.14129658
67	0xbab28468	-0.0013619782
68	0x3d2459ce	0.040124707
69	0xbce0f908	-0.027462497
70	0xbe7cb2dd	-0.24677606
71	0xbcea1124	-0.028572626
72	0x3d95c867	0.07313614
73	0xbbac8455	-0.0052647986
74	0x3cd07a4f	0.025448946
75	0x3dcd44e5	0.10022906
76	0x3e73621d	0.23767896
77	0xbcc34f15	-0.02384142
78	0xbd73bac3	-0.05950428
79	0x3a74bf22	0.00093363423
80	0xbcd0acd2	-0.025473032
81	0xbe37a8d9	-0.17935504
82	0xbdffec3f	-0.12496232
83	0xbdfce9a6	-0.123492524
84	0xbd17473b	-0.036933165
85	0x3d37d218	0.044878095
86	0xbe80f0fc	-0.25183856
87	0x3c678ea6	0.014133131
88	0xbebc1307	-0.36733267
89	0xbd840571	-0.0644635
90	0xbe172309	-0.14759459
91	0xbdc350f8	-0.09536928
92	0x3b96cf40	0.004602343
93	0xbe80e6f9	-0.25176218
94	0x3db27d8d	0.08715353
95	0x3db77b56	0.08959071
96	0x3cc036da	0.023463655
97	0x3d042568	0.032262236
98	0x3d79dd2a	0.061001934
99	0x3b41e79e	0.0029587517
100	0xbd282f93	-0.041060995
101	0xbe580f83	-0.21099667
102	0xbd8cbf3e	-0.06872414
103	0xbd6ba68b	-0.057531875
104	0xbe34983d	-0.176362
105	0x3e10dd3f	0.14146899
106	0xbe96d81f	-0.29461762
107	0xbc007395	-0.007840057
108	0xbe5abe51	-0.21361662
109	0xbd4f1ab2	-0.050562568
110	0x3dae6d2e	0.08516918
111	0x3b816ea1	0.0039499556
112	0xbdb58a72	-0.08864297
113	0xbd958abe	-0.073018536
114	0xbe1ef455	-0.15522893
115	0xbd59e354	-0.053195313
116	0xbd55fa95	-0.052240927
117	0xbe30cc33	-0.17265396
118	0x3d47e4c6	0.04880216
119	0x3e8a3c65	0.26999202
120	0xbdaa6da8	-0.083216965
121	0xbdd024b5	-0.10163251
122	0x3d750310	0.059817374
123	0xbde105a9	-0.10987408
124	0xbba1dfa6	-0.004939991
125	0xbdb1622a	-0.086613014
126	0xbe2ccafe	-0.1687431
127	0x3d8aefb6	0.067840025
128	0xbb22d24c	-0.0024844585
129	0xbd37c497	-0.044865217
130	0xbe259bcf	-0.16172718
131	0xbda1da76	-0.07902996
132	0xbdb71e93	-0.089413784
133	0x3dbb4047	0.09143119
134	0xbd761b97	-0.060084905
135	0xbd95949d	-0.07303736
136	0x3d97e2e9	0.074163266
137	0xbd5f6635	-0.05454083
138	0xbe425b3a	-0.18980113
139	0xbce7e255	-0.028306166
140	0xbd9c0bee	-0.07619463
141	0x3d828404	0.06372836
142	0xbdfd97fb	-0.123825036
143	0x3cfa0324	0.030519076
144	0xbd6f1f2a	-0.05837933
145	0xbdcc8ede	-0.09988187
146	0xbd86a131	-0.065737136
147	0xbe49ac5d	-0.19694658
148	0x3dc3e427	0.09565001
149	0xbe51bc1c	-0.20481914
150	0x3c2e4c89	0.010638365
151	0xbddc1a7d	-0.1074724
152	0xbe043761	-0.1291175
153	0x3c9dd211	0.019265207
154	0xbc25deed	-0.01012395
155	0xbe442a48	-0.19156754
156	0xbda57c88	-0.08080393
157	0x3db6b774	0.0892171
158	0x3df10cdb	0.1177003
159	0xbc47fb70	-0.012205943
160	0x3a9eea4f	0.0012124273
161	0x3e7ca45b	0.24672072
162	0x3cbc268f	0.022967605
163	0xbc23a9ea	-0.009989241
164	0xbe0e04ba	-0.1386899
165	0x3c041764	0.008062217
166	0x3d74b646	0.059744142
167	0xbe028b3c	-0.12748426
168	0xbdb81427	-0.08988219
169	0x3e362def	0.1779096
170	0xbdcfb162	-0.10141255
171	0x3be79194	0.007066915
172	0xbf1caef4	-0.6120446
173	0x3d5f08a0	0.054451585
174	0x3ca9f18d	0.020745063
175	0x3cf93520	0.03042084
176	0x3b5d094a	0.003372746
177	0xbe095741	-0.13412191
178	0x3cfb8147	0.030701293
179	0xbd3bda8b	-0.045862716
180	0xbe97a798	-0.2962005
181	0xbe2604fc	-0.16212839
182	0x3db3c581	0.08777905
183	0xbc0ed573	-0.008717882
184	0xbe3bbab5	-0.18332942
185	0xbec43fab	-0.38329825
186	0xbe8b5b79	-0.27218226
187	0xbef96630	-0.48710775
188	0x3ce78c75	0.028265217
189	0x3c1cd644	0.009572569
190	0x3d8e5407	0.06949621
191	0x3cf3bb8d	0.029752517
192	0xbd3a44d0	-0.04547578
193	0xbd9d133f	-0.076696865
194	0xbdf4dee8	-0.119565785
195	0x3dad1823	0.08451869
196	0xbda83acc	-0.082143396
197	0xbe1d1986	-0.15341768
198	0xbdd6e72a	-0.1049331
199	0xbaea8d3d	-0.0017894875
200	0x3db6b0c9	0.08920438
201	0xbe10863f	-0.14113711
202	0xbe6af09b	-0.22943346
203	0xbd9c5fa8	-0.076354325
204	0x3d9d8c6c	0.07692799
205	0xbca2d046	-0.019874703
206	0xbcb86f28	-0.02251394
207	0x3e25ef2c	0.16204518
208	0x3c92ce01	0.017920496
209	0xbd9f2f10	-0.07772648
210	0x3c2ad2bb	0.010426219
211	0x3e6890ec	0.22711533
212	0xbceb7424	-0.028741904
213	0x3e564db6	0.20928082
214	0xbeb42139	-0.35181597
215	0xbe8f08e9	-0.27936485
216	0x3dd9dfbd	0.10638378
217	0xbe73d8cd	-0.23813172
218	0xbdec673d	-0.11543129
219	0x3e1f20e1	0.15539886
220	0xbeb17a6e	-0.3466372
221	0xbd2986e9	-0.041388426
222	0xbe2df4c9	-0.1698791
223	0xb9599db2	-0.00020753479
224	0xbbe53c0f	-0.006995685
225	0xbdec00f2	-0.11523618
226	0x3da1211f	0.078676455
227	0xbd2506e1	-0.040289763
228	0x3d537f33	0.05163498
229	0xbe589c30	-0.21153331
230	0xbdb2cae9	-0.08730108
231	0xbdd81cb1	-0.105523475
232	0x3db542a0	0.08850598
233	0xbb91e98b	-0.0044528893
234	0xbe54c29a	-0.2077736
235	0xbd8434f1	-0.0645541
236	0x3dc0d3f0	0.09415424
237	0xbe0207ca	-0.12698284
238	0xbe13fb18	-0.14451253
239	0xbd4914e2	-0.04909218
240	0xbd90a251	-0.070622094
241	0xbe8395a6	-0.2570011
242	0x3d85f2d8	0.065404594
243	0xbdb7673d	-0.08955238
244	0x3d773378	0.06035182
245	0xbd71a8a9	-0.058998737
246	0x3a9e27f4	0.001206635
247	0xbd3c9e90	-0.046049654
248	0x3cb11dbf	0.02162063
249	0xbdd6ed07	-0.10494428
250	0x3deb9423	0.11502864
251	0x3db85803	0.09001162
252	0xbd2e2551	-0.042516056
253	0x3bc4147d	0.0059838877
254	0xbdf99380	-0.121863365
255	0x3d418c9f	0.047253247
